Source Code/Frontend/retinal_autoencoder.pth (torch, 750743 bytes, 12 tensors)

encoder.0.weight f4 [32, 3, 3, 3]
00000000: 4fe4 3a3d c6e5 1bbd f19b 09bd 3983 aebd
00000010: 9ec3 3d3e 8cf9 973d 0954 403e d999 00bd
00000020: f11c 463e 5dad 153e 359f cfbd d109 b3bd
00000030: 2d65 47bd 4915 9fbc 6d37 ca3d f7be ed3d
00000040: 2733 4ebd 9b43 003e dc1a 08bd ccf5 80bd
00000050: 92f8 163d 87ff c9bd 6cf3 ea3c d75d c4bd
00000060: 8122 5c3d d19f 043e 9121 c03d 5f1c 26be
00000070: e2bf 0d3e 905b 273e 9c43 94bd a9de fa3d
00000080: 42d4 c93c bd51 48be bf2d e1bd 635e 103d
00000090: 552c 1c3e 802f 0e3d 6d0e debd 951a 13be
000000a0: 4724 da3d 87be 3f3d f1a7 02be b127 25be
000000b0: 3f16 cf3d 0469 02be bb43 fa3d b40c 63bd
000000c0: 58dd b5bc 2cbc 89bd 787a f43d 0cc3 57be
000000d0: 469b cbbd b82c ccbd 9c41 88bd 93c1 27be
000000e0: 150a 353d b8a6 a6bd 7bc3 28be 2bfc 833d
000000f0: 6adb 4d3e 4975 753d 0efc ca3d 78d5 10be
00000100: b519 90bc e3b8 193e 42ca a73c cb7b e7bd
00000110: 1651 ffbc 12a5 763d 31bf 1b3d 8c42 4a3e
00000120: 7564 c1bd c22c 203e 5d1d 113d d97c 9c3d
00000130: 0374 a6bd f7a5 00bd 575b 21be 230c dcbd
00000140: 693b 133d 0e1c 4f3e cdac b3ba b4ae 98bd
00000150: 21fe 1cbe b264 6d3c 8f37 95bd 0529 c3bd
00000160: 89cd 13be e9c6 afbc aa7b 03be 8ab6 033e
00000170: 404b f73c 9162 0f3e 9a20 343e 10eb 0bbe
00000180: 9f34 92bc a128 3d3e 58bf 323e a3c1 0fbe
00000190: 4e8e 6bbd 5629 453d 31f7 dbbc 484d f1bd
000001a0: bf10 c83d 7522 f2bd 7cef e7bc 46ef d0bc
000001b0: 1ff8 1c3e 13a0 8bbd 23de 873d 0694 dd3d
000001c0: 093c 66bd 9988 e1bd fc92 783d 1f86 073e
000001d0: 439d 00bd 4b51 bb3d d6a0 f93d 031b 063e
000001e0: 4c3d 8bbd 7d46 b7bd 9f3b 41bd c39f 05be
000001f0: 55f4 edbd bb38 c5bd cbd5 07be c8ab 973c
00000200: 21c0 f4bd d641 133e b3db 59be 3a39 0fbe
00000210: a0a0 eb3d 36cd bc3d 4ebd 813d ad6d e53d
00000220: e8d2 d6bc 459b 8bbd 1955 0fbd bce3 b63d
00000230: cb43 013e 71c9 35be fbdf e6bd 10c1 603d
00000240: a6d9 36bd e986 1abe 0d75 873d dda6 d7bc
00000250: 6f01 8bbc e398 463c dc1b 5cbd f8f3 ef3d
00000260: d2af 0c3e 5aee 243e 5c59 8cbc e287 6cbd
00000270: a523 2fbe 21b5 9f3a 959f 243e fd21 d3bd
00000280: 665c 2ebe f0ee 333d 74e6 5ebe f0f3 0f3b
00000290: 6858 c6bd 5bb0 743d 5cac a33d 4ac9 74bc
000002a0: 9968 b03d e761 1b3e c1bb aa3d 0582 ba3d
000002b0: f8a7 92bd 4885 c0bc de60 39bd 6de6 1a3e
000002c0: 35a9 24be cd4a ea3a 7dcc 4f3c 4ac5 24be
000002d0: facd a53d 7750 ae3b 384a 063e 14d9 b63b
000002e0: 4c55 9f3d 98df ee3d cacb aabc d0d0 283c
000002f0: 9612 33be 1761 663d 8af8 1abe 66fc 883c
00000300: 608f 453d fd75 01bd fe30 0d3e 053a 8cbd
00000310: 673c c0bd fbb3 48be 380b be3c d74f ab3d
00000320: 5c3d 0dbe af91 15be 96a7 97bd b4bb 6abe
00000330: 5347 9bbc 1e0a 8abe 60d4 24be 5fcb 1d3e
00000340: 050d b33c 7c41 303d 7c77 b13d 64b2 36be
00000350: 62a0 0b3d b769 fcbd 4184 20be 6f1b c13d
00000360: a20d a23d 00a3 d23d 7311 453d d2ba a13c
00000370: 0228 c73d 060a 253e fc18 b4bd 4a76 85bd
00000380: dab5 823d 9796 253e 1f2e b23d 11f2 b03d
00000390: 1270 c73c b1b2 c5bd a225 2d3e 8330 d33d
000003a0: ec6a 8a3d 75fc 323e 3719 d73d b089 03ba
000003b0: e399 36bd 23b6 453e 7e06 103e ef4e 253e
000003c0: d93f b7bd 2b40 7fbd 9634 523c 957f ba3d
000003d0: 70e5 093e 0784 0b3d 0fba 5e3d 400f 3fbd
000003e0: b4fc f03d 2e8c 103d 6490 83be 65ed b43d
000003f0: 0191 913d 86cc 523e 44db 453d 02ef 613c
0.04562789 -0.038060926 -0.033595983 -0.085211225 0.18531653 0.07420644 0.18782057 -0.03139672
0.19346978 0.14616914 -0.10137788 -0.08742107 -0.048680473 -0.01941933 0.09873853 0.11608689
-0.05034175 0.1252579 -0.03322874 -0.06296882 0.03685815 -0.09863191 0.028680526 -0.09588211
0.053743843 0.1295159 0.09381402 -0.1622176 0.13842729 0.16343522 -0.07239458 0.122495
0.024637345 -0.1956243 -0.109950535 0.035246264 0.15251286 0.03471327 -0.10842595 -0.14365609
0.106514506 0.04681256 -0.12759377 -0.16128422 0.10111665 -0.12735373 0.1221995 -0.055432037
-0.022200271 -0.06725344 0.119374216 -0.21070498 -0.099417254 -0.09969467 -0.06653139 -0.16382436
0.044199068 -0.08137268 -0.1648082 0.064445816 0.20103231 0.059926305 0.09911357 -0.14143932
-0.017590383 0.15011935 0.020482186 -0.113029085 -0.031166594 0.060216017 0.03802413 0.19751948
-0.09442989 0.15642074 0.035428394 0.07641 -0.08127596 -0.031408276 -0.157575 -0.107445024
0.03594533 0.20225546 -0.0013708115 -0.07455197 -0.15331317 0.01448934 -0.072859876 -0.09529308
-0.14433874 -0.021457152 -0.12840143 0.12862602 0.03018725 0.14002444 0.17590562 -0.13663888
-0.017847357 0.1847253 0.17455804 -0.1403871 -0.05750876 0.048135124 -0.026851268 -0.11782318
0.09768819 -0.118229784 -0.028312437 -0.02550472 0.15329026 -0.06817641 0.06634166 0.10819249
-0.056209598 -0.11012382 0.06068705 0.13234757 -0.031399976 0.09146365 0.1218888 0.13096242
-0.06798801 -0.089489914 -0.047176 -0.13049226 -0.11618868 -0.09629961 -0.1326515 0.018514529
-0.11950708 0.14380583 -0.21275215 -0.13986674 0.11505246 0.092188284 0.06334935 0.112025596
-0.026223615 -0.06816725 -0.034993265 0.08930156 0.12623517 -0.17752625 -0.1127319 0.05487162
-0.04464116 -0.15090527 0.066141225 -0.026324684 -0.016968457 0.012121412 -0.053737506 0.11716455
0.13738945 0.16106549 -0.017132454 -0.057746775 -0.17103441 0.0012184718 0.160765 -0.10309217
-0.17027435 0.04392904 -0.21767598 0.0021965466 -0.09684831 0.0597385 0.07991859 -0.014940569
0.086137004 0.15174066 0.083365925 0.091068305 -0.07160944 -0.023501053 -0.045258395 0.15126963
-0.16080172 0.0017875076 0.012683031 -0.16090885 0.080959275 0.0053196508 0.1311425 0.005580077
0.07779941 0.11663741 -0.020849127 0.010303691 -0.17487559 0.056244936 -0.15133873 0.016721915
0.048232436 -0.031606663 0.1378822 -0.06847004 -0.09386521 -0.19599907 0.023198709 0.083648376
-0.13792938 -0.14606355 -0.07405011 -0.22923166 -0.018954908 -0.26960844 -0.1609664 0.15409611
0.021856794 0.0430312 0.08665368 -0.17841488 0.0340885 -0.12324851 -0.15675451 0.09429061
0.079127565 0.10284996 0.048112344 0.019742403 0.09724428 0.16117105 -0.08793828 -0.065167025
0.06382342 0.16170727 0.08700203 0.086399205 0.024345431 -0.09653223 0.16908887 0.10311987
0.06758675 0.17479117 0.10502856 -0.00050177705 -0.04458035 0.19307761 0.14064977 0.16143392
-0.08947725 -0.062317055 0.01282992 0.091063656 0.1346643 0.034061458 0.054376658 -0.046645403
0.11766949 0.035289936 -0.256961 0.08834342 0.071077354 0.20585832 0.04830481 0.013789894

encoder.0.bias f4 [32]
00000000: 0bcc 0cbe 7026 003e ca0b ec3d eb2f 1f3e
00000010: e5f3 e33d 383c 553e 453a 1d3e a20b 083e
00000020: 4664 56bd d003 5e3d 3926 bbbd 4c9b 013e
00000030: e8d5 373b 5581 a63c 2389 df3b 5841 37be
00000040: 777d 3e3e 8593 193e 6224 ed3d 9986 b639
00000050: 9e52 8fbd 73c7 8fbc 82ed 0c3e 2037 233e
00000060: cdba 473e 2a6f 3c3e 9a1d 123e 8cc4 10be
00000070: 39ab 0f3e 2771 efbd d2bd c5bd 5356 b53d
-0.13749711 0.12514663 0.11525686 0.15545623 0.111305036 0.20823753 0.1535426 0.13285688
-0.052341722 0.054202855 -0.0913815 0.12656897 0.0028051082 0.020325342 0.006821768 -0.1789602
0.18602549 0.1499768 0.11579205 0.00034814028 -0.0699818 -0.01755116 0.13762477 0.15938997
0.19504853 0.1840178 0.14269105 -0.14137477 0.1403016 -0.11691504 -0.09655346 0.08854356

encoder.2.weight f4 [64, 32, 3, 3]
00000000: a827 033e 22bf ca3d 6f25 053e 83c7 b03d
00000010: b0b3 1a3e e9c9 223e e261 bb3c 2d73 f63d
00000020: b282 203d 762b aebc fbbe e8bc b848 0dbd
00000030: 0e45 0d3c 78dd babb c859 b2bc 0c00 a73d
00000040: 9518 213d 4362 223d 9ab1 81bc 7275 863c
00000050: 85e7 62bb 0239 bb39 f3dc ebbc 8f04 71bd
00000060: 3adf 6bbd b395 97bc f477 a83c 20a2 fcbc
00000070: 6265 a0bc 2d7d d6bc e79d 37bd 94ba 51bd
00000080: 8a6c acbc a02c ae3c a4e4 4e3c 2d80 96bd
00000090: f112 58bd 111a 6c3b 9dbe 07bd 79e9 97bd
000000a0: 81ba b9b8 e50e 47bd bf42 81bd 28ae 6bbc
000000b0: 64e4 783d 8e9a 623c 560c 53bd ecfc 3abd
000000c0: b062 a8bc af20 893c 4124 56bd abd7 5bbd
000000d0: f7b1 9d3c ac7e dd3b 4bd9 303d c33d 23bd
000000e0: 3969 4fbc cbad f6bc 598e 2bbd 2327 093d
000000f0: a5bb 1ebd be0b 9d3c b835 ae3b be66 88bc
00000100: 8e19 48bd 3134 dcbc bc25 97bc 9042 383d
00000110: ad48 3d3d a8f0 f9bb 2480 a33d b535 1d3d
00000120: 4a83 87bc 0b7e d83c 5d2a ed3b 908b 903d
00000130: 37aa b13c ae4e 9ebb a174 49bc 8830 523d
00000140: be8d 603b 3c74 793b f9d9 303b ead9 633d
00000150: 68d1 5c3d 370c 7abb 8e4d 24bd 4dff 2a3d
00000160: ec2b 2fbb e328 0d3d 3db9 46bc e8e3 573c
00000170: ddb0 5ebc 5ea6 bfba 3b97 98bc a3c0 2c3c
00000180: 1b5f de3c 4555 1ebd 370b b7bc 84d4 94bc
00000190: 5f9e fbbb 317e d53b 21fc ab3c ac56 f5bb
000001a0: dec0 1c3c bbf0 703c c01a 293d f945 52bd
000001b0: 8c05 f3bc 7b2c dcbc a477 0dbc a5fe f83c
000001c0: d00d 73bc f128 893c 9daa ed3c b51d 693d
000001d0: e429 983d d16d 0c3d 4866 353c 29f1 3b3d
000001e0: 8d3d e23c a5d6 09bc a9ae c03c 3ae1 b23d
000001f0: 621a d7bb 7d5d 2d3c 9cd6 eb3b cc76 4f3d
00000200: 97fa 803d 7fd7 8c3d c716 813d 8454 a73d
00000210: 0d61 1dbd 34bf 573c 3138 333d 8cf7 223c
00000220: 768d bcbc 65f4 c83d 7a3f 6a3d 4180 303e
00000230: 1aa4 433e 51d9 da3c fae3 6c3e bbff 833e
00000240: 0df2 36bd 8a6c ccbc 7de7 6c3c 3877 91bc
00000250: cea1 89bd 2d4b 85bc cf18 0c3d c598 0d3d
00000260: d4f9 e6bc 6d2d 133d 0759 4cbd 77bb 833d
00000270: 659c a3bc cec7 a6bc ad1d d9bc 1bf4 5e3d
00000280: adeb 57bd 3d8c bf3c 9af1 1a3d 6933 e83c
00000290: 8644 143c f596 d3bc b0af ac3c 4610 823d
000002a0: 3c42 b03c ce8d 733d cdbe 9cbc b4b6 47bc
000002b0: 3ef9 1cbd 0d28 523c e05b 48bd 8232 023c
000002c0: 9aeb d6bc 2af4 913c 02f6 cc3b 7be1 e8bc
000002d0: 9709 e23c 03ac 20bd 893e 6dbc 821a a43d
000002e0: 2859 6b3d e9a8 823d 37d2 643d 0a33 213d
000002f0: 3b5d 4d3d 3c1c 11bd e38c a73c b0ae 673d
00000300: 8fa3 ffbc de41 b1bc d029 623d cff9 3fbd
00000310: 26f5 6e3d 76d7 0c3d 7267 0abd 13a2 9c3c
00000320: 2bed 0a3c 179d 733c f0c7 103c 3543 fabc
00000330: 5803 6b3d cc84 8d3d 8a7d 41bc c74a 123d
00000340: a890 cb3b 375f 143d 2409 403d 9531 bfbc
00000350: 8f00 403d c283 0abd 6ae0 77bd 7a90 9cbc
00000360: b55a 65bc 90af bfbc 38c5 1bbd 1ed7 a2bd
00000370: aa3a a3bc f474 6abb 3c5e d1bd 29fd 90bd
00000380: ac69 12bc f8ff 02bd de5d 873b 40b1 313b
00000390: 445f 40bd a676 cdbd 87b9 91bd cdad 89bd
000003a0: b549 a6bc 7102 46bd ee73 e43c f90f 903d
000003b0: 916d 113d 740d 843c bcd6 04bd c279 94bc
000003c0: 35eb ed3d aa2a 42bc 0d04 42bb f09a 393d
000003d0: ac81 6bbd 7f37 3d3c eef2 55bc 3c99 263d
000003e0: 3c4d 8a3c f2c9 153d 1dd9 eebb 91c8 98bc
000003f0: 2713 f7bc 2fea 5ebd 4980 0e3d cb23 e03b
0.12808096 0.09899737 0.13002561 0.08631804 0.15107608 0.15897335 0.022873823 0.12033687
0.03918714 -0.021260958 -0.02841138 -0.034493178 0.008622421 -0.0057026707 -0.021771327 0.08154306
0.039330084 0.03964449 -0.015831757 0.016413424 -0.003462286 0.00035709894 -0.02879188 -0.058842238
-0.057585932 -0.018504 0.02056501 -0.030839026 -0.019579593 -0.026182735 -0.04482832 -0.051203325
-0.02104785 0.021261513 0.012627754 -0.07348666 -0.05275244 0.003602628 -0.033140767 -0.07417578
-8.8562265e-05 -0.04859819 -0.06311559 -0.014384784 0.060764685 0.013830794 -0.051525436 -0.04565136
-0.02055487 0.016739218 -0.05228067 -0.053672474 0.0192499 0.006759485 0.043175977 -0.039853822
-0.012659364 -0.030112168 -0.0418838 0.03348459 -0.03875317 0.019170638 0.0053164624 -0.016650554
-0.048852496 -0.026880356 -0.01845061 0.044985354 0.046211887 -0.0076275654 0.07983425 0.038381297
-0.016542096 0.02642729 0.007237716 0.070578694 0.02168761 -0.0048311567 -0.012295873 0.051315814
0.0034264172 0.0038063666 0.002698539 0.05562774 0.053910643 -0.0038154253 -0.040113024 0.04174738
-0.002672906 0.03446282 -0.012129125 0.013176896 -0.013591972 -0.0014621725 -0.0186268 0.010543975
0.02714496 -0.038655538 -0.022344215 -0.018167742 -0.0076787914 0.0065152873 0.020994248 -0.0074871387
0.0095674675 0.014705832 0.041285276 -0.051336262 -0.02966573 -0.026876679 -0.008634482 0.030394861
-0.014834836 0.016743155 0.029012019 0.056913096 0.07429865 0.034284417 0.011071749 0.045884285
0.02761724 -0.008412992 0.023520784 0.08734365 -0.0065644244 0.010581371 0.0071972143 0.050650403
0.06297796 0.0687704 0.063031726 0.08170417 -0.038422633 0.013168145 0.04375476 0.009946715
-0.023016673 0.098122396 0.057189442 0.17236425 0.19105569 0.026714953 0.23133841 0.25781044
-0.04466443 -0.0249541 0.014459488 -0.017757043 -0.06720315 -0.016271198 0.034203347 0.03456952
-0.0281953 0.035931993 -0.04988959 0.064322405 -0.019972036 -0.020358946 -0.026503408 0.054432016
-0.052714992 0.0233823 0.037828065 0.028344827 0.00904954 -0.025828818 0.021079868 0.0635076
0.021515958 0.059461407 -0.01913395 -0.012189556 -0.038323633 0.012826932 -0.048915744 0.007946612
-0.02623539 0.017816622 0.0062549124 -0.02842783 0.027592463 -0.039226543 -0.014480242 0.080128685
0.057458073 0.06379873 0.05586454 0.039355315 0.05013774 -0.035427317 0.020452922 0.05656308
-0.03120592 -0.021637853 0.055215657 -0.046869095 0.05833926 0.034385167 -0.03379006 0.019120252
0.008479397 0.014868996 0.008836731 -0.030549625 0.057376236 0.069100946 -0.011809716 0.035715844
0.0062123127 0.036223616 0.046883717 -0.023339072 0.046875533 -0.03381706 -0.060516752 -0.01911186
-0.013998677 -0.023399144 -0.03802988 -0.079511866 -0.019925434 -0.0035775276 -0.10223052 -0.070795365
-0.008936327 -0.031982392 0.004131063 0.0027113706 -0.046965852 -0.10032396 -0.07115465 -0.06722603
-0.020298818 -0.048342172 0.02788731 0.070342965 0.03550488 0.016119696 -0.03243135 -0.018124465
0.11617128 -0.011850992 -0.0029604465 0.045313776 -0.05749671 0.011548876 -0.013058407 0.04067348
0.016882531 0.036569543 -0.0072890655 -0.018650325 -0.0301605 -0.054422554 0.03479031 0.0068402044

encoder.2.bias f4 [64]
00000000: d4dd 18bd 8342 80ba 8b47 d83d f843 48bd
00000010: 99a8 6e3d 880a 863c 8e59 8a3d 66a4 a73c
00000020: 8229 2e3d 51c7 393c 7389 a13c 4d83 d0bc
00000030: e5f4 513d ca54 04be 970a 683d e1d0 793d
00000040: c1fc 5dbd 5c9a 54bd b7e3 8b3d 5a47 25bb
00000050: e7a7 d8bb 62ca 983d 0e68 d23d bd1f 92bd
00000060: 0cb1 9a3d f2cd 0a3d 2b6a 763d 89f3 36bc
00000070: aeb1 58bd ea29 54bc 726d 77ba b339 ccbb
00000080: ccb1 173d 415e 9b3d f76c 293d eec8 103d
00000090: 7bc0 5ebd bfb4 82bc 198f 9b3d b3e3 beba
000000a0: ec90 893c 5355 743c 3ace 5d3c 193f 7cbb
000000b0: c4c8 173d a0f0 0c3d d49f 9e3d 4bc4 5e3d
000000c0: 3f6a 353d 702b b93d 6fd7 8d3c 8512 bb3c
000000d0: a2cc 03bd e10e b33d a9a2 893d aa68 213d
000000e0: 3f2f 0f3d cce4 f73b ab39 613d 0988 0abd
000000f0: c7bf 7d3d 0bc9 66bc e8da 4d3d ec62 703d
-0.037320927 -0.0009785447 0.10560521 -0.048892945 0.058266256 0.016362444 0.067553625 0.020464133
0.042520054 0.011339025 0.019718861 -0.025453234 0.05125894 -0.1292297 0.056650724 0.060990218
-0.054196123 -0.05190502 0.068305425 -0.002521953 -0.0066118124 0.074604765 0.10273753 -0.0713496
0.075533 0.03388781 0.060159843 -0.011166462 -0.052903824 -0.012949446 -0.0009438611 -0.006232464
0.037034795 0.07586337 0.041363683 0.03534787 -0.054382782 -0.015955327 0.07595653 -0.0014563709
0.016792737 0.014912921 0.013537938 -0.0038489758 0.0370567 0.034409165 0.077453285 0.05438642
0.044290777 0.09041488 0.01731464 0.02283598 -0.032177575 0.08743072 0.06720478 0.039406456
0.034957167 0.0075651165 0.054986637 -0.03382114 0.06195047 -0.014086018 0.050257593 0.05868809

encoder.4.weight f4 [128, 64, 3, 3]
00000000: 96b5 893c c5ba 4fbd 55ab c0bb 5189 053d
00000010: 210a d33c 2374 62bd 7a48 013d 9a56 15bd
00000020: dfee 683d c28b 74bc d414 683c c467 7f3b
00000030: b723 cb3c f794 83bc 7bc7 0abc 3b67 60ba
00000040: 9938 2b3a 5cd4 b43c 8e0c da3b a8e4 f6bc
00000050: 81e7 323d c704 b6bb 185b 423d 7fb9 febc
00000060: ad5a 8eba cd2e 3ebb 6f4d b43c 343a 533d
00000070: d8f6 a3bc 15ae 113d 7755 56bb 0c06 673a
00000080: f91f cebd cee5 82bc 8e67 24bd ea9b 033d
00000090: 908f 98bc 16d4 253d a7cd e9bd 7b90 5f3d
000000a0: be1e 733d 096a 5cbc 6fec babc 3dd7 9abd
000000b0: 7caa 243d a9ff da3c fb53 863d 4fd6 ac3c
000000c0: 9560 36bd c05a 4bbd db98 e73d 8d5a 6dbc
000000d0: c59d 2fbb a70a 873c d544 43bd 2316 a9bc
000000e0: af02 57bc 9b62 053d a758 1f3d 3816 4b3c
000000f0: 9376 cfbc 9035 11bd f6d6 bdbc 875b 8f3b
00000100: 62f0 003c 4d78 673d 2014 0f3c da14 343d
00000110: 46f6 abbc 3f23 783c 26b7 2a3c 0098 613c
00000120: 32cb b13c d60d 153d 419d 273d c668 c43b
00000130: 2c19 093d 35b1 c4bc f259 92bc 2733 b8bb
00000140: 863b ec3c 9506 283d e79c 083d 3d60 153d
00000150: 5f46 133d 363f 20bd 2739 b6bc c53a b2bb
00000160: bafd c33c 6f65 403d cc4f 35bc 6c6c 193e
00000170: a1a3 3e3d d08d bdbd 4d6f 1cbe c57a 8e3e
00000180: 5a50 9fbb 23e7 423e 44b1 cdbd 2ff6 0a3d
00000190: 26f5 02bd 6fc5 ecbc dffd e0bc d733 273d
000001a0: bacf bf3c 947e 3abc 79a9 d3bc df30 89bc
000001b0: 6664 f1bc b72a d13c 003b 44bc 6674 1a3d
000001c0: b0e4 c53c 87cb 323d 61ed 6abc 07e8 003d
000001d0: b23c 933d 5c8b afbd 02d9 d7bd 6403 833d
000001e0: 68de e53d 21be 953c e433 da3c c867 adbd
000001f0: 6585 bebd e6b4 91bc 1c49 df3c 1779 833d
00000200: a8fa db3c 53c9 743c 1df9 e3bc a0fd a43c
00000210: 8331 8a3c a70c ce3a 2a2b f83c eb18 45bd
00000220: b839 b0bc fd16 423d d0c3 0a3d 59c0 2d3d
00000230: 16cd 1a3d a687 c83c 64d2 de3c d2f3 12bd
00000240: 1935 193c c511 61bd 6764 6a3d 3695 8d3d
00000250: 4303 f33c f141 efbc 97af 7d3d 1121 efbb
00000260: cb73 be3d 2401 0dbd 763e 71bd 50b2 eebc
00000270: 234d 1e3c f4d5 eabc 5400 803c ebbc 13bd
00000280: 0f0d 173d 5d13 d33c edd9 233c 0953 293e
00000290: d3a1 dcbd 99b8 e5bc 6bf3 14bb c49c 67bd
000002a0: 5188 53bc 20fa 183d 607e d83c 5d1f fe3b
000002b0: d16e 163d 0cde 5238 df81 0ebc 38af 263c
000002c0: 1248 75bb 055d cfbc f223 39bd 9825 f63c
000002d0: 0bfd b73c 1581 e03c 3bfc c8bc b67f 18bd
000002e0: 2a5d 803d 4513 f3bc 4939 20bd 20c3 9fbc
000002f0: c5e7 1e3d 7022 1bbd 560d 343d 4236 143c
00000300: 8d7e d13c e2cc b13b ea15 813c fa87 633b
00000310: 5428 a03c 1510 873c a311 14bd d2d9 3f3a
00000320: 30b3 c2bc 2717 33bd 5dfc 9cbc abb2 b83b
00000330: 64f2 05bb 554a 8f3c 7403 fd3c d850 7abc
00000340: 6cac 9dbc 4224 323c 235d 103c f1bd 1cbc
00000350: bbbd 68bc 1570 303d 2229 3fbb fc33 293d
00000360: e291 a63c a3cc bf3c 4a1f bdbc cdd8 4c3c
00000370: 7233 013d 2936 223c 725c 213d 63e0 4f3d
00000380: 9756 e63b e82d 4bbd 4d69 bc3d 0312 e7bc
00000390: 75bb a93c 58f4 59bd 9d52 703d ef29 113c
000003a0: 981f 033e 9a5c 4abe 208b 84bd d7a2 163d
000003b0: 41e8 30bd fe0a 613a 5c06 a9bc cceb 18bd
000003c0: 1d01 27bc 0431 89bc e361 873d 6694 b5bc
000003d0: ab08 07bb f6b0 94bc 96d0 ad3c 5c6a f63c
000003e0: ee00 b53c 765c be3b ab4e 25ba 4b80 413c
000003f0: f4fc c73c f91e 303b cbb0 153d b964 7f3d
0.01681022 -0.050715227 -0.0058797994 0.03260166 0.025761666 -0.055286538 0.03156326 -0.036459543
0.05686843 -0.014925899 0.014165122 0.0038971761 0.024797304 -0.016062243 -0.008470411 -0.00085603044
0.0006531566 0.022073917 0.0066543287 -0.030138329 0.04367781 -0.0055547687 0.047450155 -0.03109431
-0.0010860764 -0.0029019595 0.02200958 0.05156918 -0.020015165 0.03556641 -0.003270475 0.0008812852
-0.10064692 -0.01597872 -0.04013782 0.032131113 -0.018623143 0.040485464 -0.11416178 0.054581147
0.05935549 -0.013453015 -0.022817818 -0.07560585 0.04020165 0.026733236 0.06558987 0.021098284
-0.0445257 -0.049647093 0.11308452 -0.014486921 -0.0026796919 0.016484572 -0.047673065 -0.020640438
-0.013123198 0.03256474 0.038902905 0.012395434 -0.025325095 -0.03545147 -0.02317379 0.0043749246
0.007869812 0.056511212 0.0087328255 0.043965198 -0.020991456 0.015145122 0.010419643 0.01376915
0.021703336 0.036390148 0.040921453 0.0059939353 0.03347127 -0.02401028 -0.017865155 -0.005621332
0.028836977 0.041021902 0.03335276 0.036468733 0.035955783 -0.039122783 -0.02224405 -0.005439135
0.023924697 0.046971735 -0.011066388 0.14982766 0.046542767 -0.09255564 -0.15276833 0.2782804
-0.0048618736 0.19033484 -0.10043576 0.033926185 -0.031972073 -0.028902737 -0.027464805 0.040820923
0.023414481 -0.011382718 -0.025837647 -0.016746936 -0.029466819 0.025533063 -0.011976957 0.037708662
0.024156898 0.04365113 -0.014338822 0.03147128 0.07189311 -0.085715026 -0.10539438 0.06397131
0.11224061 0.018279137 0.026636072 -0.0846706 -0.09302787 -0.017786454 0.027256541 0.064195804
0.02685292 0.014940578 -0.027828747 0.02014047 0.016869312 0.0015720323 0.03029402 -0.048119467
-0.021511897 0.047385205 0.033878148 0.042419765 0.03779324 0.024478745 0.027199931 -0.035877056
0.009351038 -0.054948587 0.057224657 0.06913225 0.029664641 -0.029206248 0.061935034 -0.007297643
0.092994295 -0.034424916 -0.058897458 -0.02913776 0.0096619455 -0.028666474 0.015625156 -0.036068838
0.036877688 0.02576607 0.010000688 0.16535582 -0.10773053 -0.028042125 -0.0022728096 -0.056545988
-0.012910918 0.037347913 0.026427448 0.0077552036 0.036726777 5.02747e-05 -0.008697956 0.010173611
-0.003742699 -0.02531291 -0.045200296 0.030047223 0.022459527 0.027405301 -0.024534335 -0.03723117
0.0626777 -0.029672274 -0.03911713 -0.019502223 0.03879525 -0.03787464 0.04395803 0.009046139
0.02557304 0.0054260353 0.01575752 0.00347185 0.01955048 0.01648716 -0.036149632 0.00073185295
-0.023767084 -0.04372325 -0.019163305 0.0056365333 -0.0020438666 0.017491499 0.030885436 -0.015278064
-0.019247256 0.010872902 0.008811268 -0.00956677 -0.0142053915 0.04307564 -0.0029168804 0.04130934
0.020333234 0.023413008 -0.023086209 0.012502861 0.031543203 0.009900608 0.039394803 0.0507511
0.0070293653 -0.049604326 0.09199772 -0.02820683 0.02071927 -0.05321154 0.058672536 0.008860095
0.12805021 -0.19761887 -0.064718485 0.03677639 -0.043190245 0.0008584707 -0.020632915 -0.03733425
-0.0101931365 -0.016747005 0.06610467 -0.022165488 -0.0020604532 -0.018150788 0.021217626 0.030080013
0.02209517 0.005809362 -0.0006305973 0.011810373 0.02441261 0.002687393 0.036545556 0.062351916

encoder.4.bias f4 [128]
00000000: bc7c 983d cb05 743c 8454 863c 3f07 44bd
00000010: 0b9e 9e3d 1829 543d b550 cd3d 75a7 083d
00000020: 000c 10be 5203 923d ed07 613d b75c 293d
00000030: 5dc2 91bd a9bf 41bb aeae 363d 4f5c 9f3b
00000040: 9688 2abd 753e 80bc 922f 9dbd 5533 763d
00000050: 2ae9 52bd eb21 c83d 9474 92bd 39c5 98bc
00000060: 4c99 a3bd 00c7 9b3d b260 fe3c 1d6d 20bd
00000070: f752 b1bb a06f 673d 1567 ae3d f4e8 fc3a
00000080: 6e80 453d 096e a9ba 0297 8d3c e18d 553c
00000090: 6ac0 a03c 9e0a af3c 8021 4abc afc5 23bc
000000a0: b2a9 b83a 3fbf 233d 3462 a3bb 101a 5e3d
000000b0: d287 0bbd 4f0c f23c 9cf1 00bd bd0e 273d
000000c0: c72a cb3c 16b8 73bd 2d73 783d 8db6 723d
000000d0: 83bf 403d 2dc9 2ebd e1f9 a9bd 220d 27bd
000000e0: a852 d83b 5f6b b53c b9af 803c 6f5a f6bc
000000f0: e72e d63c d61d 9d3d 3920 a4bc c66d a1bd
00000100: d687 72bd 53ee a73c 1aba abbc 70ad e03c
00000110: b1cb 6f3b a917 54bb 5330 04bd e6a2 cf3b
00000120: dd82 03be eb58 103d d433 053d bc50 063c
00000130: 61f8 97bc e8c6 853d b32d 373c feeb 98bb
00000140: 606f 823c 125d fdbc e729 4abc a3ab 88bc
00000150: 4944 7e3d 5dd5 5e3d a685 25bc 4761 9c3d
00000160: 18b7 54bd 878f 56bd 2fb0 00bc 0b1e a93c
00000170: feb5 893d 801d e0bd e6db f83c 13ae 10bc
00000180: 91c6 203d 1c8e 183d fc07 473d 6517 5abc
00000190: eef2 9d3d 2781 163d d96e 9d3c c4a2 cd3d
000001a0: b4d7 5abd f51e b4bd 5188 2c3d 1b8b 843d
000001b0: 56d2 b73d 72cf dc3c c2de b23d 8257 5b3d
000001c0: 16f9 3a3d 9b64 be3c f61d a3bb a63f 583c
000001d0: 6d0a 82bb 47fa 4abd ecae 9fbc 46df 6fbc
000001e0: dbda 223d 4825 793d a5cd 6c3d 4e75 e93c
000001f0: a336 1c3d 2272 703d 8f67 1c3c 11ec 813d
0.07445666 0.014893959 0.016397722 -0.047858473 0.07744988 0.051797003 0.10025159 0.033362824
-0.14067078 0.071295395 0.0549392 0.041348185 -0.0711715 -0.0029563701 0.04460018 0.004863299
-0.041634165 -0.015654782 -0.07675089 0.060107548 -0.051491894 0.09772094 -0.07151142 -0.01864873
-0.079882234 0.076063156 0.031051967 -0.03916656 -0.0054115015 0.05650294 0.08515755 0.00192955
0.048218183 -0.001292647 0.01728392 0.013034315 0.019623 0.021367367 -0.012337089 -0.009995862
0.0014088659 0.03997731 -0.004986072 0.054224074 -0.034065075 0.029546885 -0.031480417 0.04078554
0.024800671 -0.05950173 0.060656715 0.059256125 0.04705764 -0.042672325 -0.08299614 -0.04078401
0.0066016503 0.022145925 0.015708791 -0.030072419 0.026145412 0.076717064 -0.020034896 -0.07882266
-0.059211574 0.020499384 -0.020962764 0.027426451 0.0036589915 -0.0032362735 -0.032272648 0.0063365577
-0.12842889 0.03524105 0.03252013 0.0081979595 -0.018551053 0.06532079 0.011180329 -0.0046668043
0.015922248 -0.030928168 -0.012339092 -0.016683405 0.06207684 0.054402698 -0.010102665 0.07635742
-0.051932424 -0.052382972 -0.007854505 0.020644208 0.067241654 -0.10943127 0.030378293 -0.008830565
0.039251868 0.0372449 0.0485916 -0.013311242 0.07712351 0.036744263 0.019217895 0.10040811
-0.053428367 -0.08794967 0.04212219 0.06471845 0.08975665 0.026954386 0.08733894 0.05355025
0.045647703 0.023241332 -0.004977937 0.013198769 -0.003968528 -0.04955509 -0.019492589 -0.014640635
0.039759498 0.06082657 0.057813305 0.028498318 0.038138043 0.058702596 0.009546175 0.06343854

decoder.0.weight f4 [128, 64, 3, 3]
00000000: def0 b3bd 6c9d 72bd 2845 f7bc 5c78 0c3c
00000010: e474 053d e4df 38bd 6504 47bd 2bfa 20bc
00000020: 0115 82bd c671 b43c 273c 463d 9784 6c3c
00000030: 1fc7 6d3b 08a6 ce3c 98b6 c5bc c829 10bd
00000040: 053e 1abd eacb 2b3d e647 68bd 1b60 4bbc
00000050: db32 debb b781 7f3b 8721 adbc e0db a63c
00000060: 8590 b2bb cd66 dbbc b778 93bc e9c3 fdbc
00000070: a34a f3bd 6334 efbc 06e3 8f3c 32e5 92bc
00000080: 203a b83c d274 bf3c 5424 5c3e 80b5 103e
00000090: ca4f b5bc c624 8bbc d723 06bc c33d b3bb
000000a0: b585 1dba b54c 9b3d 2c8a 0a3d a32f 883d
000000b0: 985a aebc 93db 833c d256 feba 049d cf3c
000000c0: 903d 45bd 5446 dd37 c71e e3bc d2db ac3c
000000d0: cb36 623d a8ae 55bc dfc2 8f3d 2e59 a6bd
000000e0: 0175 2e3c fbbe dc3c 9fdb 68bd 150e 6d3c
000000f0: 097e 2cbb f6f9 87be 87ba 6e3e a578 673b
00000100: 3958 99bc 0a79 083a d05f 103d 42e8 353d
00000110: bbc3 9a3d 6240 013d c22e 903c 623f 953c
00000120: 3433 c9bc fc22 34bd ef08 a43c 441c 4e3b
00000130: f0db 31bd 9874 953d 93d3 bd3c a863 bf3c
00000140: fd77 0abd d39d abbd bfe5 a1bd d439 d5bd
00000150: f8be ad3c 17e9 703c 0cb3 cbbd fcfa aabc
00000160: f49a 0dbd 5f62 9c3c fe03 7c3b 4bef eb3b
00000170: efbc 3c3c a32c 0dbd 147d 283d 3b4a 463d
00000180: 3258 7fbc 6535 ad3c 7ec7 a43a 7ef8 4a3c
00000190: 82ff c1ba 95b3 bd3c a7f8 c43d 0ad3 dfbc
000001a0: 5645 933d 1618 5b3d 5bdd 0b3e 8bab f33b
000001b0: d474 3dbd 0985 643c f7be 2abd 7c21 0fbc
000001c0: 5c63 91bc 3cef c13d bf07 c1bc 412b 0c3d
000001d0: bf2f a73b 5e6c 8239 40b4 ccbc 137c 1abd
000001e0: 7d10 5e3d f727 8bbc 5922 a73d fdbf a13c
000001f0: d2bf acbc 9f38 b63c abcc 123c 926f 1abd
00000200: e668 d4bc 9ca3 8cba f4df 5abc a141 8a3c
00000210: 164e dfbc 845b bbbc 54de 1c3d caf5 83bd
00000220: 1c81 843c 94e0 33bc a806 923c 98f4 b6bc
00000230: 307b 013d 21c9 9f3c bed4 5c3d b40d 95bc
00000240: 50e0 65bc 1730 20bd daf2 88ba eee4 8abc
00000250: abb2 7d3c bb83 17bd 1cd0 b93b 0fb1 953c
00000260: 03d1 1cbc cd0d 2abd 9745 443d 33ee 243d
00000270: 3093 00bc 1471 28bd 3d47 b03d 2aa6 c93c
00000280: f7f3 663d 1969 aebd 4435 b8bc ae6c 073c
00000290: 42e2 aa3c 765f a5bc 4c1c 023d 431d 09bd
000002a0: 7174 a4bc 12fa ba3d 3398 d2bc 2f41 70bb
000002b0: 890f 74bd 7ca6 31bd 2914 8c3d 514f a43c
000002c0: 4984 ca3d d5f4 b73d 8ed9 bc3d 059a 553e
000002d0: 6865 7bbb 0b02 2e3c 9745 94bc 8559 b2bc
000002e0: 9701 763d 7e98 36bc 092e cdbb 70e6 96bc
000002f0: c671 d1bc 9bcd 86bc 74a3 53bc 51cc 813d
00000300: 8fe6 023d 0b2b 70bc 6e53 acbd bee6 433c
00000310: 96eb e9bc 6d08 d83d 6b8b 75bd fdff b9bb
00000320: 74bf 153c ed41 30bc 8c58 6f3c 710b 05bd
00000330: 2366 b5bc 56ff 1fbc 11ae ee3c 9471 163c
00000340: 51cd c7bd ab0d 613d 887a da3b 1026 653b
00000350: a88a 82bc 6da5 673d 16c9 48bd 1b71 343d
00000360: d7d8 50bd e803 203c b757 bbbc 43b6 453b
00000370: 6c74 0a3d 1118 ef3c 8aca 84ba 4c12 1f3d
00000380: 725d 49bd 881f 80bd 178d 29bb 1e03 f63c
00000390: 4c63 ee3c 2d48 3fbd 90b7 7ebd fc3c 3dbd
000003a0: c2f3 c53b d801 74bd 7106 8e3c 155a 243c
000003b0: d9c9 803c d540 01bc e5f2 80bc 9a22 cbbc
000003c0: 0db1 3fbd 0271 8cbc e1d3 0e3d 127c 513b
000003d0: f054 f6bc 849d 7e3d f6f5 573b 61c1 f4bc
000003e0: 05ad 2dbc 9515 cb3c 8336 fdbb ab55 5d3b
000003f0: 4057 b83c f997 fd3c bec3 07bd e3cc 19bc
-0.08786176 -0.05923216 -0.030184343 0.008573618 0.03258218 -0.045135394 -0.048588175 -0.00982527
-0.063516624 0.022026908 0.04839721 0.014435909 0.0036282015 0.025225654 -0.024134919 -0.035196096
-0.037656803 0.041942514 -0.056709193 -0.01241305 -0.006780965 0.0038987228 -0.021134151 0.020368516
-0.005449357 -0.026782418 -0.018001897 -0.030977206 -0.1187947 -0.029199785 0.017564308 -0.017931554
0.022488654 0.023371134 0.21498233 0.14131737 -0.022132773 -0.016985308 -0.008187256 -0.005470009
-0.00060089986 0.0758299 0.033823177 0.06649711 -0.021283433 0.016095912 -0.0019404537 0.025343426
-0.048154414 2.6378002e-05 -0.027724637 0.021100912 0.055228036 -0.01304213 0.070195906 -0.081224784
0.010648013 0.026946535 -0.056850072 0.014468689 -0.002632024 -0.26557893 0.23313342 0.0035319712
-0.018718826 0.00052060245 0.035247624 0.04441095 0.07556864 0.03155554 0.01760042 0.0182187
-0.024560548 -0.043978676 0.020023791 0.0031449953 -0.04342264 0.07297629 0.023172176 0.02336295
-0.033805836 -0.08379712 -0.07905149 -0.104114205 0.021209225 0.01470401 -0.0994626 -0.020871632
-0.034571603 0.019089876 0.0038454528 0.007200157 0.011519655 -0.034466397 0.04113491 0.048410635
-0.015584992 0.021143625 0.001257166 0.012388347 -0.0014800879 0.02315692 0.09617739 -0.027322311
0.07190959 0.053489767 0.13658659 0.007436221 -0.046253994 0.013947734 -0.041686025 -0.008736011
-0.017747574 0.094694585 -0.023563264 0.034220938 0.0051021273 0.00024876272 -0.024988294 -0.037715983
0.054214943 -0.01698683 0.08160848 0.019744867 -0.02108756 0.022243796 0.008959929 -0.037704058
-0.025928926 -0.0010729912 -0.013359059 0.016876997 -0.027258914 -0.022870786 0.038297966 -0.06443365
0.016174845 -0.010978837 0.01782544 -0.022333428 0.03161162 0.019505085 0.053913824 -0.01819501
-0.014030531 -0.039108362 -0.0010448352 -0.016954865 0.015484492 -0.036990862 0.0056705605 0.018272905
-0.009571317 -0.041517068 0.04791793 0.040266227 -0.007847592 -0.041123465 0.086073376 0.024615366
0.056385007 -0.085161395 -0.022486337 0.008265657 0.020859841 -0.02018712 0.031765267 -0.03347517
-0.020075055 0.091297284 -0.02570734 -0.0036659946 -0.059585128 -0.043371662 0.06839783 0.020057352
0.09888513 0.08982245 0.09221183 0.20859535 -0.0038360003 0.010620604 -0.01809959 -0.021771202
0.06006011 -0.011144755 -0.0062615913 -0.018420428 -0.025566947 -0.016455462 -0.012917388 0.063377984
0.03195816 -0.0146587 -0.084143505 0.011956869 -0.028554719 0.10548482 -0.059947412 -0.005676268
0.009139884 -0.010757905 0.014608514 -0.032481615 -0.02214343 -0.009765467 0.029135736 0.009182353
-0.09755958 0.054944675 0.006667439 0.0034965314 -0.015935257 0.056554247 -0.049019895 0.04405318
-0.050988045 0.009766556 -0.022868974 0.003016845 0.033802435 0.02918628 -0.0010131162 0.03883581
-0.049161382 -0.06256014 -0.002587145 0.030030783 0.029100083 -0.04669969 -0.062186778 -0.046200737
0.006041021 -0.05957207 0.017337056 0.010031243 0.015721248 -0.007888992 -0.015740821 -0.024796773
-0.04679971 -0.01714373 0.034870032 0.003196482 -0.030069798 0.062161937 0.0032953 -0.029877366
-0.010600333 0.024790565 -0.0077274456 0.0033772986 0.022502542 0.030956255 -0.03314566 -0.009387228

decoder.0.bias f4 [64]
00000000: 54ec fe3c 72f9 a1bc 0d1a 983d 3cbb ea3c
00000010: 01d9 bc3d 5eaa 9d3d 3e4a a2bd 127c 1c3d
00000020: 7d42 3e3d ff1d b2bd 69de a03d 0551 f6bb
00000030: 8be1 de3d d267 d0b9 27fb e13c 0dbe ee3a
00000040: 17d4 2d3d 8e4f b93d 2346 5b3d 1ea1 91bd
00000050: 9bfb ad3d 7568 b4bd 8b1f 8fbd 7b54 d5bc
00000060: 80aa 873d 0a37 3ebd 7a6a 323d 94d8 28bc
00000070: 7b43 a3bd 3bd2 b03d 5ca7 a3bd 6695 813d
00000080: 4184 a7bc 5861 a3bd 9d15 8cbc 9a0f 3f3d
00000090: d929 a33d bf80 983c 93d3 96bd 9246 6f3c
000000a0: 31c9 d5bd 4bce f53b 6605 b13d 6270 913d
000000b0: b70c c53c eb3b 313c 6eab 8f3d 2e98 c83d
000000c0: 7dc3 4e3d 5619 0b3d a6a9 083d 6e27 febc
000000d0: 6078 f3bb 9efd 0c3c 892f b2bd 3dc0 673d
000000e0: ada0 d3bc 319b 0cbc 104b 153d f427 62bd
000000f0: 773d 5b3d 2105 6c3d 6b3c d63d 567a 32bd
0.03111855 -0.019772265 0.07426844 0.028653733 0.09221078 0.076985106 -0.07924317 0.03820426
0.046450127 -0.086971276 0.07854921 -0.0075169825 0.10882863 -0.00039750204 0.02758558 0.0018214599
0.042438593 0.09048377 0.053533684 -0.07110809 0.084952556 -0.08808986 -0.06988438 -0.02604126
0.06624317 -0.046439208 0.043558575 -0.0103055425 -0.07971855 0.08633848 -0.07990906 0.063273236
-0.020448806 -0.07977551 -0.01710015 0.04664574 0.07966966 0.018616078 -0.07364573 0.014604228
-0.10438765 0.0075013987 0.08643608 0.071015134 0.024053914 0.010817508 0.070151195 0.09794651
0.0504794 0.03395971 0.033364914 -0.03102466 -0.0074301213 0.008605389 -0.08700473 0.056579817
-0.025833452 -0.008581922 0.03644854 -0.055213884 0.053525414 0.05762208 0.104607426 -0.0435737

decoder.2.weight f4 [64, 32, 3, 3]
00000000: b24e 6939 bb11 43bd 86ef b23d 1ad6 0cbc
00000010: eed6 abbd 982b a2bc fd1f 7dbc 1945 61bd
00000020: dc87 4f3d cb80 d93c 07b3 1e3d ea27 043b
00000030: 7ea8 543d 9004 133e a411 df3d 2895 0a3d
00000040: 3bcb 6dbc 8a8c 1f3d 8c35 963d 22b5 4d3d
00000050: 99a9 d43c 8ad4 a73d 3517 11bc 7175 a1bd
00000060: e370 f33d e046 a33d 23ca b83d b2a9 45bd
00000070: 1415 33bd d9fd 00bd a531 1e3d d5c5 943c
00000080: 9b8b 903c c57a 453d f720 ae3c 73ab 7cbb
00000090: d6c8 523c c3eb 0cbc 9960 86bc 6609 d0bb
000000a0: f4e1 853d a717 433d 9adc dabc a47f b4bb
000000b0: b5eb c83c eceb 27bb 3c9c 63bc 96ff 133d
000000c0: 7719 8bbd 13a8 1ebe 018c 6ebd 4e46 823d
000000d0: db89 4a3d db81 7a3d 32df cb3c ea97 9a3a
000000e0: 6a93 0cbc b79b 14bd 6d3e e33d 1845 14bd
000000f0: 3bf1 16b8 e97f b93d 47d6 4e3d 5817 27bd
00000100: 51d3 8ebd 142f 893c fc16 603d 4599 863d
00000110: 2a03 9c3d d921 85bd 5047 07bd fe22 513d
00000120: 45cf b93b 71d0 183d 1bd2 353b 6d76 783b
00000130: be5b 4f3c 7112 b53c 121f e63c b229 b73d
00000140: b7ca 1cbd 0afd 81bd b0a7 8a3d ba92 e7bd
00000150: e623 85bc d9be 5fbd e4d3 9d3c 7959 74bd
00000160: 10ca b03b dbdb 13be cf92 68bc bbab 86bc
00000170: 80fe 2bbc ece6 2b3c 883d ef3d f80f 213e
00000180: 5699 263d ce19 01bd 16f5 093c e0f0 243c
00000190: 9107 16bd 9c7a 5abd 76e3 5abb e9da e13c
000001a0: 9b6c aebc 213f e53b 015f 503a 93c8 30be
000001b0: 1cb5 9cbc d591 1bbd f19c 553d 4789 8d3a
000001c0: 4133 8cbd 5f28 b23c 335d 8cbd a6ce 793b
000001d0: efe1 8a3d cb2c 343d bc07 8c3c 44b4 813d
000001e0: e260 a53d 9809 203e 5907 9ebd a7a7 043b
000001f0: 1d42 7dbc dea3 293d 9bfc 223c 1970 87bd
00000200: f8f6 303d dc52 febc e90a ea3d b097 50bd
00000210: 1efc a6bc 01da acbd b9b1 4fbd 9801 52bc
00000220: 1aa0 183d 1a54 73bb 976f e7bc 60e8 393d
00000230: e208 823c 183b 43bd f218 2a3e 4cf0 043d
00000240: f9b6 05bd 3879 8c3d bbaf c93c b2ad c93c
00000250: 5791 38bb c1e4 06bd d7e1 32bc 1fc0 5d3e
00000260: 5a95 fdbc bccc 473d 542d 683c 5889 6d3a
00000270: 411e e63c 1af7 893c e7a7 3cbd 1378 d63c
00000280: 27f7 083d 8c31 eb3d a3b4 15bd 315f ec3c
00000290: 5881 8fbd f179 b03c 59e5 69bd dc80 44bc
000002a0: d8b4 3cbd 4a25 81bd ea09 75bd 45ec 3e3d
000002b0: 6b2f 1d3d 1dbc 3b3d 014a 543d 3bd7 90bd
000002c0: c45e e43d c86a 563d 3f82 b7bc ba52 d43d
000002d0: f074 b2bc 6aa0 7c3c c6b1 44bb aee7 3bbd
000002e0: 5b5c 7abc 8cbf 143d b964 3b3d ce0f 983d
000002f0: 612c 76bc 4f69 6c3c ad84 723d f0a9 303d
00000300: b0b7 7d3d 26fe 113e 6953 f83d edb2 b1b9
00000310: 796b 2c3d 5b3a bd3d e5fb 4dbd 267d ab3a
00000320: 42b3 1dbd b154 96bb 91bf f83d 3d98 203c
00000330: e9fc 343d a568 b43c abda 77bd d28f 683d
00000340: 3a30 003d 524d 043e 53bf 89bc 24da 563d
00000350: 0f38 803d 4b7e 553c b934 acbb 9342 3fbd
00000360: 68c7 67bd 0aaa a93c f348 eebc c670 883d
00000370: 739c 55bd 1df6 653d 91a9 f0bc 5c67 1f3c
00000380: 7766 523d 3039 073c ae91 483d 4b84 203d
00000390: 763d 4f3c c13c 473d c0a2 98bd 3edd b73c
000003a0: fbcb 613e d8f3 7fbc 3068 03ba 086e 1abd
000003b0: 08d7 33bd 9c8a d13c 68c6 57bd 295f c83d
000003c0: 4b8c 023d 69af f0bc 9162 113d 3322 0ebc
000003d0: e188 86be 19e9 043d f196 8b3d 6f6f 213c
000003e0: a392 6b3d a901 adbc a1ae e73d e64a b4bc
000003f0: 4211 5f3d ddff 933d 31f1 923d f72c 67bd
0.00022249928 -0.04762433 0.08737092 -0.008595968 -0.08390604 -0.019796178 -0.015449521 -0.054997537
0.050666675 0.026550671 0.038744953 0.0020165392 0.0519185 0.14357209 0.108920366 0.033833653
-0.014513786 0.038952388 0.07334432 0.05022157 0.025959777 0.081948355 -0.008855631 -0.07883728
0.11886766 0.07972503 0.090229295 -0.048257537 -0.043721274 -0.031492088 0.038621563 0.01816074
0.017644694 0.048212785 0.021255953 -0.003855434 0.012865266 -0.008601132 -0.016403483 -0.0063487766
0.06537238 0.04762998 -0.02671652 -0.00550838 0.024526456 -0.0025622798 -0.01389223 0.036132418
-0.067919664 -0.15493803 -0.058238987 0.06361066 0.049447875 0.061158996 0.024886701 0.0011794541
-0.008580068 -0.036281314 0.11095891 -0.036198705 -3.598745e-05 0.090576 0.05049732 -0.040793747
-0.06973899 0.016746081 0.05470942 0.065722026 0.07617791 -0.065005966 -0.033026993 0.05105876
0.0056704604 0.03730816 0.002774364 0.0037912384 0.01265615 0.02210352 0.028090987 0.089434996
-0.03827926 -0.063470915 0.06770265 -0.11307283 -0.01625247 -0.054625366 0.019266076 -0.05965564
0.0053951815 -0.14439337 -0.014195158 -0.01643931 -0.010497689 0.010492068 0.11681658 0.15728748
0.040673576 -0.03151875 0.008420249 0.010067195 -0.03662831 -0.053339586 -0.0033399737 0.027570205
-0.021292021 0.006996051 0.0007948727 -0.17264013 -0.019129328 -0.037980873 0.052151624 0.0010798358
-0.068457134 0.021747766 -0.06853714 0.0038117557 0.06781375 0.04398803 0.017093532 0.06333211
0.080751196 0.1562866 -0.07716245 0.002024153 -0.015457657 0.04141604 0.009947921 -0.06613178
0.043204278 -0.03104537 0.11427862 -0.05092591 -0.02038389 -0.084400184 -0.0507066 -0.012817763
0.03726206 -0.0037128986 -0.028251452 0.045387626 0.015873376 -0.047663778 0.16611078 0.032455727
-0.0326452 0.06859058 0.024619928 0.024618957 -0.0028162801 -0.032933 -0.010918102 0.2165532
-0.030955005 0.048779234 0.014170963 0.00090612983 0.028090598 0.01684146 -0.04605856 0.026180303
0.033438828 0.1148406 -0.03654922 0.028853985 -0.07007092 0.021542521 -0.05710349 -0.011993613
-0.046070904 -0.063059404 -0.059823908 0.046612043 0.0383753 0.045833696 0.051828388 -0.07072302
0.111508876 0.05234793 -0.022400973 0.10367341 -0.021784276 0.015419105 -0.0030013188 -0.045875244
-0.015280808 0.036315486 0.045750353 0.074248895 -0.015025229 0.014429404 0.05920856 0.043130815
0.061942756 0.14257106 0.12125284 -0.0003389338 0.04209468 0.09239646 -0.050289053 0.0013083562
-0.03850103 -0.0045877327 0.121459134 0.009801921 0.044186506 0.022022555 -0.060511272 0.056777783
0.031295992 0.1292012 -0.016814863 0.05245413 0.06260692 0.013030599 -0.0052553085 -0.04669435
-0.056586653 0.020710964 -0.02908752 0.06662135 -0.052151155 0.056142915 -0.02937773 0.009729233
0.05136725 0.008253381 0.048967056 0.039188664 0.012648931 0.048641924 -0.07452917 0.022444364
0.22050469 -0.015622102 -0.00050127786 -0.03770259 -0.04390624 0.02557879 -0.05267945 0.09783775
0.031872075 -0.029380517 0.03549439 -0.008675146 -0.26276305 0.03244886 0.06815899 0.009853228
0.05751289 -0.021118956 0.11312605 -0.02200837 0.054459818 0.072265364 0.0717491 -0.056439366

decoder.2.bias f4 [32]
00000000: f6e2 453c d0f3 633d efe8 6bbd 13cb 333b
00000010: 6470 723d 0345 0ebe cb65 953c 5ae6 f83b
00000020: 6993 a33c 9a84 443c 0193 1a3d d8f8 a63c
00000030: 98fb a53b eac3 3fbc e9e4 253d d080 613c
00000040: 2c0d 9fbd b9f2 bfbc e8c0 65bd 6ab8 bd3c
00000050: ae64 953c 7fc7 893d 059d fb3c 8181 65bc
00000060: 0e97 ac3c 723a 913d 836f 8f3c 0443 66bd
00000070: d9f1 58bd d9e6 b93c bdf0 123e 5447 1e3d
0.0120780375 0.05565244 -0.05759519 0.0027434274 0.059189215 -0.13893513 0.018237015 0.0075958194
0.019967752 0.011994505 0.03773785 0.02038233 0.0050653927 -0.011704424 0.04050151 0.013763621
-0.07766184 -0.023431169 -0.056092173 0.023159225 0.018236484 0.06727504 0.030714521 -0.014007927
0.021068122 0.07091226 0.017509228 -0.056216255 -0.05296502 0.022693085 0.14349647 0.038642243

decoder.4.weight f4 [32, 3, 3, 3]
00000000: 2252 163d 02c4 663c 83a2 9dbd 91e6 d43d
00000010: d894 5ebe 049c 8f3d 0312 66bd a39c c7bd
00000020: b8e3 50be 5a3b 043e bdeb cfbd 124f 81bc
00000030: 69f3 5bbb e93b c23d 2571 d9bd 739e 26be
00000040: 03bf ffbd 6d9c 843c 8da2 df3d 32f6 1dbd
00000050: 2988 f73d ee67 ccbd aa79 55be fabd 163e
00000060: 48ac a63d 6eac 86bd 3b73 ecbd 7b16 16be
00000070: 341f d63d 6e07 10be 1ed4 163d 4b86 ecbc
00000080: fa05 e83d c99a e2bd 2819 91bd aec1 3dbe
00000090: 2950 0abe cf0c 323d 2d39 87bd 8240 df3d
000000a0: 15f0 89bd 984e 5ebe 84fd 22be 74de 46be
000000b0: 3a62 123e 0816 cfbc d8d8 acbc ed1f 09be
000000c0: 27e5 2fbd 1f5e d0bd 36ec d93b 0bdd 3dbe
000000d0: 40cd afbb 2197 3c3c 67e3 edbc e3b8 b53d
000000e0: c218 e13c 5c02 683d 1865 b43d 08ca da3c
000000f0: 4d1c 3e3e 05a9 4b3e 863e 533e 2349 b3bc
00000100: 8b0a 2b3d ec67 b73d 32f2 e43d a59a 6d3d
00000110: 5694 0b3e de1f 803e c533 313e 9276 333e
00000120: 24ff e2bc d417 41bb 6abf 703d c92d f93d
00000130: 30fd f4bc e1be b93d 883c 183e ce40 0a3e
00000140: c989 713d fee2 1abe 3235 52be 839a 463e
00000150: 9530 f23d 7eed 2e3e c2d8 d93d deb1 fc3d
00000160: f75b 50bd ddfe 973d 93ca 15bd ddb7 873c
00000170: bc83 c0bd 9d07 833c 8b70 87bd 6246 92bd
00000180: 7c06 0f3e 6026 863d 7322 abbd 1e28 e7bc
00000190: 29ce 28be ea25 583d 1a31 2dbe bd33 d5bd
000001a0: 36ad f63d 86c4 bfbc e557 da3d 1ca3 05bc
000001b0: 2ff1 cdbd 3596 c63d 7758 d4bc 7883 1dbe
000001c0: 5486 f13a 6e2a 71be 1b3e 19bd 7f02 d8bd
000001d0: ee7d 7b38 684d edba a8b5 c23d 03dd 9abd
000001e0: 3011 073e 01c3 3ebd 0b96 b03d 18da 063e
000001f0: da5e 7cbc 4cc1 35be 92cc 923b bf73 07be
00000200: b8bb b93d 8deb 10bd f242 17bd 8baa 2bbe
00000210: 0855 fbbd 47ad 0ebe 87e4 6abe 0531 af3d
00000220: beec 863d fd7d 033e 4419 da3d 20d9 9c3e
00000230: 837b d63e 1e50 053d 747c fd3d b287 5d3e
00000240: 34cb 173c a048 a03d 2964 123e 2f6c fe3d
00000250: 46a1 863e 012a de3e 8705 f13c de6b 0a3e
00000260: 12d5 3e3e 3373 6c3d ba16 9d3d 44cf bd3d
00000270: 9fab f53d 7cf0 943e da5f dc3e 5339 883c
00000280: b024 d33d 2026 203e 3879 013e 8e60 89bd
00000290: fbe2 a63c 3595 973c 7a04 92bd d5e8 06be
000002a0: dc3e f6bb e81c 653d be01 be3d 643f cdbc
000002b0: 127f 88bd f7f4 e8bd 14e5 d7bd e5a4 01be
000002c0: c46b 3fbe c58f 22bd b95f d73d a777 d53b
000002d0: 5c05 003e d6fe 2ebe 63ed 41be a277 47bc
000002e0: 101c 50be 8c7a c43d 4205 7ebd 2095 31bd
000002f0: f9d0 f23c 2ef0 c5bc d2db b13d b44a 42be
00000300: 0948 31bd 525c 2cbe 1ebf b6bd 07aa 0f3d
00000310: ccf9 eabd 9cb8 d63c 439c f63d bd90 033e
00000320: 8f09 83ba 7d52 d53d c5c8 19be e138 91bd
00000330: c041 8f3d 2571 16bd 3f0c 89bc bef0 4f3d
00000340: 0a90 d63c 9de8 86bd 531f d03d 61f3 91bd
00000350: 4911 c9bd 2cd5 e63d 1306 56bc 760e 1f3e
00000360: 5b10 453e 333f 873e 163a 173e ae7f 2ebd
00000370: 0684 e53d 92e6 ed3c a803 10be 29a0 99bd
00000380: 79e4 d2bd 12bc a33d 7f1a 863e 7d3e 833d
00000390: fc9a 87bd fa49 ad3d 3e52 3b3d a58e 2fbe
000003a0: bf0a 2abe e8a5 bdbd f2ac ce3d 472f 853e
000003b0: 4e07 ed3d 631a 32bd 2692 f53d 3332 f6bc
000003c0: 07db d6bd 22b3 56bd 1dea 82bd 65fc 93bb
000003d0: dc9c 0bbd 4298 3abd e7f5 263e 7eaf f13a
000003e0: 4836 c0bd 7ebf 85bd e70f 38be 7a4f 0cbe
000003f0: 2381 653d 7629 0cbe e054 b63d ece6 0ebe
0.03669942 0.014084818 -0.07697012 0.103955396 -0.21736467 0.070121795 -0.05616952 -0.09746673
-0.20399368 0.12913266 -0.101523854 -0.015784774 -0.0033561832 0.09484083 -0.10617284 -0.16271381
-0.124876045 0.01618787 0.10919676 -0.03856487 0.12086517 -0.099807605 -0.20847192 0.14720908
0.08138329 -0.06575857 -0.11545416 -0.14657013 0.1045517 -0.14065334 0.036823384 -0.02887263
0.11329265 -0.11064679 -0.07084876 -0.18530914 -0.13507141 0.043469246 -0.06602702 0.10900976
-0.06735245 -0.21709669 -0.15917021 -0.19420797 0.14295283 -0.02527906 -0.021099493 -0.13391085
-0.042943146 -0.10174202 0.006650473 -0.18541352 -0.005365044 0.011510641 -0.029039098 0.08873155
0.027477626 0.056642875 0.088083446 0.026707664 0.18565483 0.19888695 0.2062932 -0.02188546
0.0417581 0.089553684 0.111790076 0.05800881 0.13630804 0.25024313 0.17304905 0.175257
-0.027709551 -0.0029463666 0.058776297 0.12166936 -0.029905885 0.090696104 0.14866841 0.13501284
0.058969293 -0.15125653 -0.20528105 0.19394879 0.118256725 0.17082784 0.106370464 0.12338613
-0.050868955 0.07421658 -0.036570143 0.016567165 -0.09400126 0.015994841 -0.06613263 -0.07142331
0.13967317 0.06550288 -0.0835618 -0.028217372 -0.16484894 0.052770533 -0.16913262 -0.10410259
0.12044756 -0.02340914 0.10661296 -0.008156564 -0.10055768 0.096966185 -0.02592109 -0.15382183
0.0018426874 -0.23551342 -0.037412744 -0.10547351 5.9960345e-05 -0.0018104734 0.095073044 -0.07561686
0.1319015 -0.04657269 0.086223684 0.13169134 -0.015403474 -0.17749518 0.004479953 -0.13227747
0.09069008 -0.03538089 -0.03692908 -0.16764276 -0.12272078 -0.13933288 -0.22938739 0.085542716
0.06588124 0.1284103 0.1064935 0.30634403 0.41891107 0.03254711 0.12377253 0.21633795
0.009264756 0.07826352 0.1429602 0.12422978 0.26294917 0.4339142 0.029421581 0.1351771
0.18635967 0.05772705 0.076703504 0.092680484 0.11995625 0.29089725 0.4304188 0.016628897
0.10309732 0.15639544 0.12643898 -0.067078695 0.020371905 0.018503765 -0.0712976 -0.13174756
-0.0075148176 0.05593577 0.09277676 -0.025054641 -0.06664862 -0.11374848 -0.1054174 -0.12660559
-0.18693453 -0.03968789 0.105163045 0.006514508 0.12502044 -0.170894 -0.18938212 -0.012174519
-0.20323205 0.095936865 -0.062016733 -0.043355107 0.029640662 -0.024162378 0.086845055 -0.1897381
-0.04328159 -0.16832092 -0.089231715 0.03507426 -0.11473426 0.026211075 0.12041523 0.12848182
-0.0009997356 0.10416124 -0.15017994 -0.07090927 0.06994963 -0.036728997 -0.016729472 0.0507667
0.02619173 -0.06587336 0.101622246 -0.07126499 -0.0981775 0.11271128 -0.013062972 0.1553286
0.1924452 0.26415405 0.14768252 -0.042602234 0.11206822 0.029040609 -0.14063895 -0.07501251
-0.10297484 0.07994856 0.2619209 0.06408403 -0.06621358 0.084613755 0.04573273 -0.17144258
-0.16605662 -0.0926016 0.100915805 0.26012632 0.11573659 -0.043482196 0.11990766 -0.030053234
-0.10490995 -0.052416928 -0.0639231 -0.0045161718 -0.03408514 -0.04555536 0.16304742 0.0018439142
-0.09385353 -0.06530665 -0.17974816 -0.13702193 0.056031357 -0.13687691 0.08902907 -0.13955277

decoder.4.bias f4 [3]
00000000: e718 883d d0dc 41be 90f0 e9bd
0.06645375 -0.1893189 -0.11422837
